weights/200_200_mlp.pt (torch, 349104 bytes, 5 tensors)

model.0.weight f4 [200, 230]
0	0xbc21811b	-0.009857441
1	0xbd26a38f	-0.040683325
2	0x3ceb9149	0.0287558
3	0x3aa24b9b	0.0012382151
4	0xbb3c1af2	-0.0028702584
5	0x3cd824a2	0.026384655
6	0x3dd92aa0	0.10603833
7	0xbd40ca1c	-0.047067747
8	0x3d3a0917	0.045418825
9	0x3d3a8dd3	0.04554541
10	0xbd2934b5	-0.04131003
11	0xbdbeecad	-0.09322486
12	0xbd63fd8d	-0.055661727
13	0x3db1abb3	0.08675327
14	0xbc146dd4	-0.009059388
15	0x3d2147a5	0.039374966
16	0x3d62c26a	0.05536119
17	0xbd867b96	-0.06566541
18	0xbbe5c6d1	-0.007012226
19	0xba9c35bf	-0.0011917873
20	0x3d5c3912	0.053765364
21	0x3d1789c6	0.036996625
22	0xbcfa1ed3	-0.030532276
23	0x3de6ce29	0.11269791
24	0x3cbff999	0.023434447
25	0x3ca6dd03	0.020369058
26	0xbe63a938	-0.2223252
27	0xbc67c081	-0.014145018
28	0x3e350d34	0.17680818
29	0x3d797899	0.060906027
30	0xbd463129	-0.048386727
31	0xbdb1aa7f	-0.08675098
32	0xbe41cb60	-0.18925238
33	0x3e2890a4	0.16461426
34	0x3d179a26	0.03701224
35	0xbdb13e23	-0.0865443
36	0xbcbd8497	-0.023134513
37	0xbdd1409d	-0.10217402
38	0x3e4e30ee	0.20135853
39	0x3d7431f2	0.059617944
40	0x3ddc3327	0.10751944
41	0x3e08b193	0.13348989
42	0xbddc7f93	-0.1076652
43	0x3cead4c7	0.028665913
44	0xbd25ee67	-0.04051056
45	0x3d421e38	0.0473921
46	0x3cd6aff6	0.026206952
47	0xbe0b662e	-0.13613197
48	0x3e67a782	0.22622493
49	0x3cfaef6c	0.030631743
50	0x3d866cc9	0.06563718
51	0x3d759b9a	0.059962846
52	0xbdac6140	-0.084169865
53	0x3e0aeacd	0.13566132
54	0x3d480250	0.04883033
55	0x3d17d489	0.037067924
56	0x3daca473	0.08429804
57	0xbe2c9f8d	-0.16857739
58	0xbccdd2e0	-0.025124967
59	0x3ce6f094	0.028190888
60	0xbcad71de	-0.02117246
61	0x3d1d4c95	0.038403112
62	0x3d2d8ec7	0.04237249
63	0x3d3cbdd7	0.046079483
64	0xbc2ac3a4	-0.010422621
65	0x3d48e7db	0.04904924
66	0xbcef55b8	-0.029215679
67	0x3dd8bd31	0.105829604
68	0x3b45146c	0.0030071987
69	0xbd65a0fb	-0.056061726
70	0xbba461c0	-0.0050165355
71	0xbe16e62a	-0.14736238
72	0x3e094df2	0.1340864
73	0x3e7dec96	0.24797282
74	0x3cd13444	0.025537618
75	0xbdc062e9	-0.093938656
76	0x3e041e83	0.12902264
77	0xbbc496dd	-0.0059994296
78	0x3cf6187a	0.030040968
79	0xbd52906c	-0.051407263
80	0xbe430faf	-0.19048952
81	0x3e5ad236	0.21369252
82	0x3cccfea6	0.02502377
83	0x3dfa56c9	0.12223584
84	0x3c978a58	0.018498585
85	0x3c7c93c6	0.015416091
86	0x3d6084eb	0.05481426
87	0xbdcd986a	-0.10038836
88	0x3d056ab3	0.03257246
89	0xbd7116c6	-0.05885961
90	0x3d940774	0.07227984
91	0x3d3c6645	0.04599597
92	0xbbcc61f8	-0.0062372647
93	0xbafcd822	-0.0019290487
94	0xbd4e38aa	-0.050347008
95	0x3c8e7725	0.017390797
96	0x3e00bc8d	0.12571926
97	0xbe067547	-0.13130675
98	0x3cc3af1f	0.023887215
99	0xbc4437b4	-0.011976171
100	0xbe23e09e	-0.16003653
101	0x3db549bc	0.08851954
102	0xbccb9db2	-0.024855468
103	0x3def1cb7	0.11675399
104	0x3d2ce66a	0.042211927
105	0xbd1360fa	-0.035981156
106	0x3db36472	0.08759393
107	0xbc3626ae	-0.01111762
108	0x3c9f9248	0.019478932
109	0xbc89a12c	-0.016800486
110	0xbcdb2d82	-0.026755098
111	0xbd77ea82	-0.06052638
112	0x3c4966d0	0.012292579
113	0x3d288da2	0.041150697
114	0xbc8d9a6a	-0.017285544
115	0xbd7c9d10	-0.061673224
116	0x3d0323a4	0.03201641
117	0xbc70c750	-0.014695957
118	0xbd5b0aa8	-0.05347696
119	0x3ccb3885	0.024807224
120	0x3bf70521	0.007538453
121	0x3dabe807	0.08393865
122	0xbd12798e	-0.035760455
123	0x3cf1cde0	0.029517114
124	0x3cb173f8	0.021661744
125	0xbceef5be	-0.029169913
126	0x3dd63af2	0.10460462
127	0xbd5b2c27	-0.053508904
128	0x3cfdf744	0.031001695
129	0xbc86840c	-0.016420387
130	0x3e50a77a	0.20376387
131	0xbd71003b	-0.05883811
132	0x3d1086f8	0.035284966
133	0x3da62362	0.081122175
134	0x3d5b3d04	0.053524986
135	0xbdbe06bf	-0.092786305
136	0x3e160ad2	0.14652565
137	0xbcaef910	-0.021358997
138	0xbc1da448	-0.009621687
139	0x3d0e6e10	0.034772933
140	0xbd31a328	-0.04336849
141	0x3d76b32f	0.060229477
142	0xbe512163	-0.20422892
143	0x3dbb5790	0.091475606
144	0xbd12194a	-0.03566865
145	0x3cfa9d2f	0.03059253
146	0x3c6c1e94	0.014411587
147	0xbe4e4660	-0.20144033
148	0x3e8ce66d	0.2751955
149	0x3d29a17a	0.04141376
150	0xbd4f4b22	-0.05060876
151	0x3c814896	0.015781682
152	0xbd89a86b	-0.06721576
153	0x3dc3c6f9	0.095594354
154	0x3c10b290	0.008831635
155	0x3d9771f7	0.07394784
156	0x3e120c92	0.14262608
157	0x3d4cdf48	0.050017625
158	0xbde25492	-0.11051287
159	0xbd1d6f70	-0.038436353
160	0xbd7893dc	-0.060687885
161	0x3dce607e	0.10076998
162	0xbca56dab	-0.020193895
163	0xbd5bbc9a	-0.05364666
164	0xbd580e0c	-0.05274777
165	0xbd2176b9	-0.039419863
166	0xbcffaceb	-0.031210383
167	0x3c6ef8ca	0.014585683
168	0x3caa4d1b	0.02078872
169	0xbd00391f	-0.031304475
170	0xbc94c085	-0.018158207
171	0xbd77e0df	-0.06051719
172	0xbd2fd184	-0.04292442
173	0x3db9f9b3	0.090808295
174	0xbd1cc998	-0.038278192
175	0xbd6391d5	-0.055559
176	0xbe3548a1	-0.17703487
177	0x3d80abde	0.06282781
178	0x3db4e675	0.08833019
179	0x3d08fa92	0.033442087
180	0x3c749424	0.014927898
181	0xbbf96ef3	-0.007612103
182	0xbd851822	-0.064987436
183	0xbc37d2cb	-0.011219691
184	0x3d3ffd8e	0.046872668
185	0xbd0fa7fe	-0.03507232
186	0x3cbcdf52	0.023055706
187	0x3e239ab6	0.15976986
188	0xbe01be0a	-0.1267015
189	0x3d1a89ee	0.037729196
190	0xbd7317a6	-0.059348725
191	0xbcba26c8	-0.02272357
192	0x3da25f42	0.07928325
193	0xbddd301e	-0.10800193
194	0xbc83d606	-0.016093265
195	0x3d0fb6ed	0.03508656
196	0xbc737430	-0.014859244
197	0xbd7a9b5d	-0.061183322
198	0x3e26549b	0.16243212
199	0xbd483e86	-0.048887752
200	0x3dbd8cd3	0.09255376
201	0xbd6a9e37	-0.05727979
202	0x3d0eac55	0.034832317
203	0x3d016d2e	0.031598262
204	0x3d5015a4	0.050801888
205	0x3aaaa3b8	0.0013018763
206	0xbbbda4d5	-0.005787472
207	0x3c8d30ce	0.017235186
208	0xbd9c46da	-0.07630701
209	0xbd46bc94	-0.048519686
210	0x3ca99d13	0.020704782
211	0xbcfd151a	-0.030893851
212	0xbd8dcf1b	-0.06924268
213	0x3da3c906	0.079973266
214	0xbb7df0b0	-0.0038748197
215	0x3bd495ed	0.006487599
216	0x3dbf15f9	0.09330363
217	0xbd17ccb0	-0.03706044
218	0xbcffc424	-0.031221457
219	0xbb294940	-0.0025831014
220	0x3b728f2f	0.0037011614
221	0x3d48afae	0.048995666
222	0x3c8706fa	0.016482819
223	0x3dd0fd75	0.10204593
224	0xbd45922b	-0.0482351
225	0xbcf9b179	-0.030480133
226	0x3b5bbd86	0.0033529713
227	0x3d5272f6	0.051379167
228	0x3d835228	0.064121544
229	0xbd55a2d2	-0.05215723
230	0x3c82c8b8	0.01596485
231	0x3cca8410	0.024721175
232	0xbca32d5d	-0.019919092
233	0xbd1ae819	-0.037819
234	0x3cefc921	0.02927071
235	0x3d3487f8	0.044074982
236	0x3d2c1ffa	0.042022683
237	0xbceb61a5	-0.028733084
238	0xbd1cfe5c	-0.038328514
239	0x3cb12891	0.021625789
240	0x3b9fc359	0.004875582
241	0x3d7e58e8	0.062096506
242	0xbd74ccc9	-0.05976561
243	0x3d54c8ba	0.05194924
244	0xbcf66318	-0.030076548
245	0xbd855605	-0.065105475
246	0x3d475ef7	0.04867455
247	0xba8e743c	-0.0010868381
248	0xbd86a379	-0.06574149
249	0xbdacca41	-0.08437014
250	0xbc466a79	-0.012110346
251	0xbd73f587	-0.059560325
252	0xbdb44877	-0.08802884
253	0x3d945c2b	0.07244142
254	0x3d02209e	0.031769387
255	0x3ca812d0	0.020516783

model.0.bias f4 [200]
0	0xbc374ed3	-0.011188227
1	0xbda4352f	-0.080179565
2	0xbc129182	-0.008945825
3	0xbd1d3de2	-0.038389094
4	0x3b1de70a	0.002409401
5	0x3ca63b13	0.02029184
6	0xbd71eff1	-0.059066717
7	0xbcafbdd2	-0.021452818
8	0xbd6cf490	-0.05785042
9	0x3d2ecbda	0.042674877
10	0x3d58d4a4	0.052937165
11	0xbc659809	-0.014013299
12	0xbdb20ef6	-0.0869426
13	0x3cf40418	0.029787108
14	0x3d00335f	0.03129899
15	0x3d08dc8d	0.03341346
16	0x3ac2d0d8	0.0014863266
17	0x3b231f29	0.00248904
18	0x3b96bd93	0.0046002357
19	0x3d075cc8	0.033047467
20	0xbda3f936	-0.080065176
21	0x3c2cbc90	0.010543004
22	0x3c8779a9	0.016537504
23	0xbcf17fba	-0.02947985
24	0xbd7fd108	-0.062455207
25	0x3cd684ac	0.02618631
26	0xbcb77e11	-0.02239898
27	0x3c5cd2ca	0.01347799
28	0xbc1d5499	-0.009602689
29	0x3d007d68	0.031369597
30	0xbd1905b9	-0.037358973
31	0x3cb53ebb	0.022124639
32	0xbcb8d3c3	-0.022561913
33	0x3c8add64	0.01695127
34	0xbd975c1e	-0.07390617
35	0xbd55e54a	-0.05222062
36	0xbd9521d3	-0.07281842
37	0x3c816e5e	0.015799697
38	0x3d363323	0.04448236
39	0xbd986289	-0.07440669
40	0xbc62889b	-0.013826515
41	0xbca0a3f4	-0.019609429
42	0xbd7ccae7	-0.06171694
43	0xbd853e89	-0.06506068
44	0xbb4b3201	-0.0031005146
45	0xbd9b0ea4	-0.07571152
46	0xbb20e52c	-0.002455066
47	0x3caa31cf	0.020775704
48	0xbd1f6a86	-0.038919948
49	0x3d1ec6a6	0.038763665
50	0xbd70a5d7	-0.058751907
51	0xbda89508	-0.082315505
52	0x3cbd3d99	0.023100661
53	0x3da86d53	0.08223977
54	0xbda0ee9d	-0.07858012
55	0xbd8f7fa6	-0.07006769
56	0xbc5f2df5	-0.013621797
57	0x3d2d5693	0.04231889
58	0x3cdb91b1	0.02680287
59	0x3b528b9a	0.0032126666
60	0xbcae5068	-0.021278575
61	0x3c930e5f	0.017951189
62	0x3d63e060	0.055633903
63	0xbd364f9a	-0.044509508
64	0x3cc951c1	0.024575116
65	0x3d185141	0.037186865
66	0xbd164cbf	-0.036694285
67	0x3acb63c5	0.0015517405
68	0x3cef4204	0.029206283
69	0xbbb79882	-0.005602897
70	0x3d2d2cf8	0.042279214
71	0xbbd4977e	-0.006487786
72	0xbd86282d	-0.06550632
73	0x3cf505ea	0.029910047
74	0xbd0121a8	-0.031526238
75	0xbd11f9d8	-0.03563866
76	0xbdb7290e	-0.089433774
77	0x3cfe228b	0.03102233
78	0x3c98822a	0.018616755
79	0x3cbc234c	0.02296605
80	0x3d25b51a	0.040455915
81	0x3c29e91f	0.010370522
82	0xbcfc6c43	-0.030813342
83	0xbbd4fed4	-0.0065001044
84	0xbd21a94b	-0.03946809
85	0xbd62682f	-0.05527514
86	0xbdacc649	-0.084362574
87	0xbd48de9f	-0.049040433
88	0xbd77c002	-0.060485847
89	0x3c992fbd	0.018699521
90	0xbd866eb5	-0.065640844
91	0xbdc6e518	-0.09711665
92	0xbda844c1	-0.08216239
93	0xbbc7783a	-0.00608733
94	0xbd53a354	-0.051669434
95	0xbd74d496	-0.05977305
96	0xbd8cb89e	-0.068711504
97	0x3c1450bd	0.009052453
98	0x3d54a256	0.051912628
99	0xbd916932	-0.071001425
100	0x3cf61265	0.030038068
101	0xbd847110	-0.064668775
102	0xbd9a1e61	-0.075253256
103	0xbd36eb84	-0.0446582
104	0x3c4a82da	0.012360299
105	0xbd71f014	-0.059066847
106	0xbd22632d	-0.039645363
107	0xbd4e06f2	-0.050299592
108	0x3d3ce565	0.046117205
109	0xbd691e8b	-0.056913894
110	0x3d31b0ce	0.043381505
111	0xbc9eb86b	-0.019375047
112	0xbd0308a4	-0.031990662
113	0xbc884d3a	-0.016638387
114	0xbd84c08b	-0.06482037
115	0xbd99a9f8	-0.07503122
116	0x3b0cc28f	0.002147827
117	0xbd1737f1	-0.036918584
118	0xbc78144e	-0.01514156
119	0xba533cf6	-0.0008058095
120	0xbce8e2f3	-0.02842853
121	0xbd41c6dd	-0.04730879
122	0xbb971c0c	-0.0046114977
123	0x3cb632c5	0.022241006
124	0xbc6a2863	-0.0142918555
125	0xbc4cb8c1	-0.012495221
126	0x3d26fe28	0.040769726
127	0x3aad571e	0.0013224815
128	0x3c8e282d	0.017353142
129	0xbd9d1330	-0.07669675
130	0xbb634a42	-0.0034681712
131	0xbd51df05	-0.05123808
132	0xbd48cf02	-0.049025543
133	0x3c95b939	0.018276798
134	0xbd412e61	-0.04716337
135	0x3d44734d	0.047961522
136	0xbd845f87	-0.06463533
137	0xbdc091cf	-0.09402811
138	0x3d4089da	0.047006465
139	0x3d856592	0.065135136
140	0xbd12a182	-0.035798557
141	0x3da39678	0.07987684
142	0xbd7953c1	-0.06087089
143	0xbd78ce65	-0.06074371
144	0x39005662	0.00012239211
145	0xbd74a032	-0.059723087
146	0x3b54b8e8	0.0032458846
147	0xbc95ae3d	-0.01827156
148	0x3d7d3c99	0.06182537
149	0x3d9effe6	0.077636525
150	0x3caba387	0.020952
151	0x3d201ba6	0.039088868
152	0xbce8d740	-0.028422952
153	0x3b0f8f07	0.002190532
154	0xbdadff7b	-0.08495995
155	0x3c9f8ac7	0.019475354
156	0xbd82ac1f	-0.06380486
157	0xbd043e83	-0.03228618
158	0xbda80408	-0.08203894
159	0xbc065ab5	-0.008200337
160	0x3cf7aa15	0.030232469
161	0xbd8bea46	-0.068317935
162	0xbdc42518	-0.095773876
163	0x3d1d2cfe	0.038372986
164	0xbd8a565d	-0.06754754
165	0xbd9ac890	-0.075577855
166	0x3c9de826	0.019275736
167	0xbd9b2bda	-0.075767234
168	0xbdaa889c	-0.083268374
169	0x3cb48062	0.022033874
170	0x399f4d7c	0.00030384574
171	0xbb109019	-0.0022058545
172	0xbd04b92c	-0.032403156
173	0x3ccb7235	0.024834732
174	0xbd5a41bb	-0.05328534
175	0x3cf946bf	0.030429242
176	0x3cc2beaf	0.023772566
177	0x3d1fc57d	0.0390067
178	0xbda0bfbe	-0.07849072
179	0x3d2a4e47	0.041578557
180	0xbd8da98e	-0.069171056
181	0xbd01b130	-0.03166312
182	0xbd07279b	-0.032996755
183	0xbdc3ce8f	-0.09560882
184	0x3d25ff12	0.040526457
185	0x3d33ce5b	0.043897968
186	0xbd9b6d74	-0.07589236
187	0xbd74bdb0	-0.059751213
188	0xbd6502f8	-0.055911034
189	0x3d427bdc	0.047481403
190	0xbd985127	-0.074373536
191	0xbd5eac2d	-0.05436342
192	0x3a785285	0.00094727456
193	0xbcceeafd	-0.025258536
194	0x3c431bc3	0.011908474
195	0xbd8fc29a	-0.07019539
196	0xbd8926c3	-0.06696846
197	0xbb0d8aa9	-0.002159754
198	0xbd8a6e4c	-0.06759319
199	0x3d042056	0.0322574

model.3.weight f4 [200, 200]
0	0xbda6aac3	-0.08138039
1	0xbc17b5be	-0.009259639
2	0x3d60ddcc	0.054899022
3	0x3d967941	0.07347346
4	0xbd7fd902	-0.062462814
5	0xbd9f3d5a	-0.07775374
6	0xbce622d5	-0.028092781
7	0x3d296f18	0.041365713
8	0x3c97cf7d	0.018531555
9	0xbcd6e781	-0.026233437
10	0xbc59223c	-0.013252791
11	0xbd1a89ae	-0.037728958
12	0xbd754364	-0.05987872
13	0x3bde36bc	0.006781427
14	0xbd97531c	-0.07388899
15	0xbd8878bf	-0.066636555
16	0x3ce2ad82	0.027670626
17	0x3c23b015	0.009990712
18	0xbc92a6fc	-0.01790189
19	0x3d6ca022	0.057769902
20	0xbd2ca8d4	-0.042153195
21	0x3d70371a	0.0586463
22	0x3d1f51bd	0.03889631
23	0xbd8dca6f	-0.06923377
24	0x3d0849b1	0.033273403
25	0x3c9754bc	0.018473022
26	0x3d17fd77	0.037106957
27	0xbd4c6287	-0.04989865
28	0x3d04297c	0.032266125
29	0x3d4ec3fb	0.05047987
30	0x3c1fc1af	0.009750768
31	0xbd46bc7d	-0.0485196
32	0xbd3ca2f7	-0.046053853
33	0x3d35bbef	0.04436868
34	0x3c846cf6	0.016165238
35	0xbccd7435	-0.025079826
36	0xbda44b5e	-0.08022188
37	0xbd518333	-0.051150512
38	0x3d5e7ae1	0.054316405
39	0xbd9984dd	-0.07496045
40	0x3c0ecb93	0.008715528
41	0xbad18d17	-0.0015987483
42	0xbd90992a	-0.07060464
43	0x3c808b4a	0.015691418
44	0xbd372a44	-0.044718042
45	0xbda3179c	-0.079634875
46	0xbd907bb0	-0.070548415
47	0xbcba43d1	-0.022737416
48	0xbd1a7c7f	-0.037716385
49	0x3bc3d63d	0.005976467
50	0xbccfeb78	-0.025380835
51	0x3bec6fd9	0.0072154817
52	0x3d41ccb0	0.047314346
53	0x3c26de8e	0.010184897
54	0x3c1be4ec	0.009515028
55	0xbc84d014	-0.0162125
56	0xbd987711	-0.07444585
57	0xbc9e168b	-0.019297859
58	0xbd8605b0	-0.065440536
59	0x3d214c04	0.039379135
60	0xbd148e71	-0.036268655
61	0x3b98292c	0.00464358
62	0xbdaf3d28	-0.085565865
63	0x3d1d384a	0.03838376
64	0x3d298f30	0.04139632
65	0x3d5890cd	0.052872468
66	0x3d695988	0.05697015
67	0xbcc43f8d	-0.023956085
68	0x3c65c410	0.014023796
69	0xbd4fb124	-0.050706044
70	0x3d6645df	0.056218978
71	0x3cbbf961	0.022946062
72	0xbd2723ed	-0.040805746
73	0xbd32e56e	-0.043675832
74	0x3ceb28c6	0.028705966
75	0xbb654f74	-0.0034989985
76	0xbd3ab7c7	-0.04558542
77	0xbd6c9c29	-0.057766113
78	0x3d537dfd	0.051633824
79	0x3d3a5ca1	0.045498494
80	0xbd879b8d	-0.06621466
81	0x3b85efab	0.0040874085
82	0xbd6070ef	-0.054795202
83	0xbd0839d0	-0.03325826
84	0x3c881c50	0.016615063
85	0xbd8bfc5d	-0.06835244
86	0xbda289b4	-0.07936421
87	0xbc55b1af	-0.013042851
88	0x3cee6d51	0.02910486
89	0xbcb298cc	-0.021801375
90	0x3cb63e16	0.022246402
91	0x3b65627a	0.0035001324
92	0xbd005562	-0.031331427
93	0x3d48cb33	0.04902191
94	0x3d51d290	0.0512262
95	0xbd600552	-0.054692574
96	0x3d17cae8	0.03705874
97	0x3d237670	0.039907873
98	0xbd866d3e	-0.06563805
99	0xbd6a0ec5	-0.05714299
100	0xbbde047a	-0.006775436
101	0xbcf20f0f	-0.029548196
102	0xbd37125a	-0.044695236
103	0xbc097ee6	-0.008392071
104	0xbd6664da	-0.056248523
105	0xbc043330	-0.008068845
106	0x3c782e38	0.015147738
107	0xbd6efbdb	-0.058345657
108	0xbaaf6aa3	-0.0013383221
109	0x3c38755b	0.0112584485
110	0x3d925160	0.07144427
111	0x3d691502	0.0569048
112	0x3b363816	0.0027804426
113	0xbcda56d3	-0.02665273
114	0xbc75d902	-0.015005352
115	0x3d955e27	0.07293349
116	0xbd894118	-0.06701869
117	0x3d4af49b	0.04954968
118	0x3a9e6673	0.0012084976
119	0x3d0dc768	0.034613997
120	0xbd17a8c5	-0.037026186
121	0xbd0c359e	-0.03423082
122	0x3cdfce15	0.027319947
123	0xbcc490b1	-0.023994775
124	0xbd068fec	-0.0328521
125	0xbd257344	-0.04039313
126	0xbd5f9759	-0.054587696
127	0x3d54e648	0.051977426
128	0x3c223b6f	0.009901865
129	0xbd698dff	-0.057020184
130	0xbd87d44e	-0.06632291
131	0x3d705767	0.058677103
132	0xbd9384f6	-0.07203095
133	0x3cb6ed83	0.022330051
134	0xbd043cc2	-0.032284506
135	0xbd89ae61	-0.06722713
136	0xbc5628dc	-0.013071265
137	0x3c9f7617	0.01946549
138	0xbd55e46b	-0.05221979
139	0x3bfced37	0.007718708
140	0xbce3d95b	-0.027813604
141	0xbdccff7c	-0.10009667
142	0x3c8ca79d	0.017169768
143	0x3d3be0f8	0.045868844
144	0xbd498787	-0.049201515
145	0x3bf190d6	0.007372002
146	0x3b2f16de	0.002671651
147	0x3d599d29	0.053128395
148	0xbca837b4	-0.020534374
149	0xbd01bee0	-0.031676173
150	0xbb92a422	-0.0044751326
151	0x3cbccf65	0.023048112
152	0xbcdd5b6d	-0.027021134
153	0x3d64f52f	0.055897888
154	0x3cb1e6ab	0.021716436
155	0xbd8ff0c8	-0.07028347
156	0xbd347487	-0.04405644
157	0xbd9f3b6e	-0.07775007
158	0x3c9549a4	0.018223591
159	0x3c8d4c18	0.017248198
160	0xbb9698f1	-0.0045958688
161	0x3cfdd49c	0.03098517
162	0xbcf47c3d	-0.029844398
163	0x3d300509	0.042973552
164	0xbd752c4c	-0.059856698
165	0x3d289ece	0.041167073
166	0xbd15cd4e	-0.036572747
167	0xbd5721fc	-0.052522644
168	0xbd465495	-0.048420507
169	0xbcf0d932	-0.029400442
170	0x3cb46997	0.022023005
171	0x3d81336e	0.063086376
172	0x3cdf7c31	0.027280899
173	0x3c9890e0	0.01862377
174	0x3c52b184	0.012859706
175	0xbda48721	-0.08033586
176	0x3d5b1c53	0.05349381
177	0x3da736a3	0.08164718
178	0xbd12c3e0	-0.035831332
179	0xbc1acd97	-0.0094484305
180	0x3cc3e5f3	0.02391336
181	0xbd11bf66	-0.035582922
182	0xbcf64ff6	-0.030067425
183	0xbd723958	-0.05913672
184	0xbc9f0e13	-0.01941589
185	0x3d3ef796	0.046622835
186	0xbc40e629	-0.011773624
187	0xbcd4d6ce	-0.025981333
188	0xbbeeee0b	-0.0072915605
189	0x39d69bcc	0.00040933338
190	0x3d8e5e2f	0.06951558
191	0x3d40e47e	0.047092907
192	0x3d1ccbee	0.03828042
193	0x3d33ad70	0.043866575
194	0x3ae1ccd2	0.0017227179
195	0x39cb2f46	0.000387544
196	0x3d0e1099	0.034683798
197	0x3d8a4020	0.06750512
198	0x3d0e5819	0.034751985
199	0x3cba2824	0.022724219
200	0x3d330631	0.043707076
201	0xba0914ae	-0.0005229217
202	0x3cf6c105	0.030121336
203	0xbcfe975d	-0.031078035
204	0x3d5e02fc	0.054202065
205	0xbdab0a6a	-0.08351596
206	0x3ce62367	0.028093053
207	0x3c5af866	0.013364887
208	0x3df118be	0.11772297
209	0x3cfc9573	0.030832982
210	0x3d901f95	0.07037274
211	0x3de153e2	0.110023275
212	0x3d7b6feb	0.06138603
213	0x3e11e1eb	0.14246337
214	0x3de96f1d	0.11398146
215	0x3d75619f	0.05990755
216	0x3bc3925a	0.005968374
217	0x3c70e6dd	0.01470348
218	0x3d079878	0.03310439
219	0xbcdc6a4c	-0.026906155
220	0x3d5ad6b2	0.053427406
221	0x3db2c2cf	0.08728563
222	0x3b6372b5	0.0034705822
223	0x3cbc19b4	0.022961475
224	0x3dd9854c	0.106211275
225	0x3dff8f44	0.124784976
226	0x3e0c6ac9	0.1371261
227	0x3dabdc81	0.08391667
228	0x3d87c008	0.06628424
229	0x3df76ad3	0.12080922
230	0x3dda7d55	0.106684364
231	0x3d9db0c2	0.076997295
232	0x3dd78aca	0.10524519
233	0xbbc1968d	-0.0059078396
234	0x3e050edc	0.1299395
235	0x3e110e5b	0.14165632
236	0x3ca682f9	0.020326125
237	0xbc160cac	-0.009158295
238	0xbd00ba19	-0.031427477
239	0xbc8edeac	-0.017440163
240	0x3dc3f836	0.09568827
241	0x3d55ea19	0.052225206
242	0x3c575199	0.013142013
243	0x3db18202	0.08667375
244	0x3e0611eb	0.13092773
245	0x3d84b81f	0.06480431
246	0xbbbad84a	-0.005702053
247	0x3e0f42bd	0.13990302
248	0x3d3bfcb2	0.045895286
249	0x3dc4a5a3	0.09601905
250	0x3a8f28eb	0.0010922229
251	0x3d902d09	0.0703984
252	0xbb3398f9	-0.0027404411
253	0x3d590139	0.05297968
254	0x3d88a188	0.06671435
255	0x3ce9e0a2	0.028549496

model.3.bias f4 [200]
0	0xbc0b8897	-0.008516452
1	0x3df554c4	0.119790584
2	0xbd02dc93	-0.031948637
3	0xbbb2053a	-0.005432752
4	0x3d4ab44f	0.049488362
5	0xbd898f55	-0.067167915
6	0x3e1858a0	0.14877558
7	0x3d643a0f	0.05571943
8	0x3daeb378	0.08530325
9	0xbd08d510	-0.033406317
10	0x3e2b1440	0.16706944
11	0x3e0bc7b7	0.13650404
12	0x3df3962a	0.11893876
13	0xbd49c1f9	-0.049257252
14	0x3d971bb3	0.0737833
15	0xbda0700c	-0.07833871
16	0xbd08f835	-0.033439834
17	0x3e01d6a6	0.12679538
18	0x3d384554	0.04498799
19	0xbd209cc4	-0.039212003
20	0xbda44cb5	-0.08022443
21	0x3ddb7761	0.10716129
22	0x3dae5a85	0.08513359
23	0xbc2f1fad	-0.010688704
24	0x3deba1de	0.11505483
25	0x3c23b8a9	0.009992757
26	0xbd814874	-0.063126475
27	0x3dc5ef3a	0.096647695
28	0x3e071ab4	0.1319378
29	0xbccb8221	-0.024842324
30	0x3e2a90ae	0.16656753
31	0xbd9265b8	-0.071483076
32	0xbe0f7e2c	-0.14012975
33	0xbd494b7d	-0.049144257
34	0x3d1c77db	0.03820024
35	0x3c984daf	0.01859173
36	0x3d9df38f	0.07712471
37	0x3d6931ed	0.05693238
38	0xbd5201fc	-0.051271424
39	0x3d668013	0.056274485
40	0xbd801a13	-0.06254973
41	0x3d424c37	0.047435965
42	0x3cfee437	0.03111468
43	0xbda9da4f	-0.08293592
44	0x3ec4569e	0.38347334
45	0x3d48a1c9	0.048982415
46	0x3e0cd81b	0.13754313
47	0xbd922b92	-0.07137217
48	0x3d52420e	0.051332526
49	0x3e249478	0.16072261
50	0xbd5b7611	-0.053579394
51	0xbde72cd3	-0.112878464
52	0x3d4f834c	0.050662324
53	0xbd8e5c4a	-0.069511965
54	0x3b6fd3e4	0.0036594803
55	0x3c1575c9	0.00912232
56	0xbd6cf641	-0.057852034
57	0x3d5efa32	0.054437824
58	0xbd3570fe	-0.04429721
59	0x3e180c72	0.14848498
60	0x3da9a988	0.08284289
61	0xbb21baa0	-0.0024677888
62	0x3d7aae68	0.061201483
63	0x3c2a2a50	0.010386065
64	0x3d812a58	0.063069046
65	0x3e047503	0.12935261
66	0xbda5c16b	-0.08093532
67	0xbdb6deaa	-0.089291885
68	0xbb3302e0	-0.0027314946
69	0x3d04eade	0.03245055
70	0x3dbb8f72	0.091582194
71	0xbcf9852c	-0.03045901
72	0x3dc231f7	0.09482186
73	0xbc95708c	-0.018242143
74	0x3eb20d71	0.3477588
75	0x3dad06ea	0.084485844
76	0xbe118664	-0.14211422
77	0xbd0745dc	-0.033025607
78	0x3d449fb0	0.048003852
79	0xbd1d274e	-0.038367562
80	0x3d0af254	0.03392251
81	0x3daee130	0.08539045
82	0xbca44bcb	-0.020055672
83	0xbcdc2c65	-0.026876638
84	0x3de0efa9	0.109832115
85	0xbda5bcd8	-0.0809266
86	0xbd78c101	-0.060730938
87	0xbd1987d3	-0.037483048
88	0x3ddedcc5	0.10881952
89	0x3e09906d	0.13434
90	0x3de2539f	0.11051106
91	0xbdd56d39	-0.10421223
92	0x3d309d2c	0.04311864
93	0x3d274698	0.040838808
94	0x3e0611d8	0.13092744
95	0xbc7c8764	-0.015413139
96	0x3de5944c	0.11209926
97	0xbdc6f335	-0.09714357
98	0x3d50c1ec	0.05096619
99	0xbc04e7df	-0.008111923
100	0xbd827190	-0.063693166
101	0xbc3e4a61	-0.011614413
102	0xbdd7ead1	-0.105428346
103	0x3cab78f9	0.020931708
104	0x3d32f02f	0.04368609
105	0x3c122b41	0.008921445
106	0x3c1edbb4	0.009695936
107	0x3e069808	0.13143933
108	0x3d10e8e4	0.03537835
109	0xbd9b02bc	-0.07568881
110	0x3d9a2807	0.07527166
111	0x3c5af186	0.013363248
112	0x3b221a0e	0.0024734768
113	0xbddcfee2	-0.107908025
114	0xbbaf287e	-0.005345403
115	0xbc45699e	-0.012049107
116	0xbc81d985	-0.015850792
117	0xbdee47c5	-0.11634783
118	0x3db0c3d0	0.08631098
119	0x3dab57d5	0.08366362
120	0x3da6a142	0.08136226
121	0x3d219be1	0.0394553
122	0x3c9dc727	0.019260002
123	0x3cbfea35	0.023427108
124	0x3d1bbb7e	0.038020603
125	0xbc5f10a9	-0.013614812
126	0xbc0cf10a	-0.00860239
127	0xbccb399a	-0.02480774
128	0x3cc92008	0.024551407
129	0x3e17caac	0.14823407
130	0x3db273f7	0.08713525
131	0xbe2d05e2	-0.16896775
132	0x3dc9ce50	0.09853804
133	0xbd393b7a	-0.045222737
134	0xbd39ea8b	-0.045389693
135	0x3d11f1c7	0.035630967
136	0xbdf24123	-0.1182883
137	0x3c074cd7	0.008258066
138	0x3dda2133	0.106508635
139	0x3dccf0cf	0.10006868
140	0x3c9c45a0	0.019076169
141	0x3c38bf5d	0.011276093
142	0xbd0c6a9c	-0.034281358
143	0xbdfc6f4f	-0.12325918
144	0xbbc8654e	-0.006115592
145	0x3d7b8d33	0.061413955
146	0x3c02a934	0.0079749115
147	0xbd83c66a	-0.06434329
148	0x3dda7ec2	0.106687084
149	0x3d5d198e	0.05397945
150	0x3cce6206	0.025193226
151	0xbc96c27c	-0.018403284
152	0xbdb4de76	-0.088314936
153	0xbd25a033	-0.04043598
154	0x3db54054	0.0885016
155	0x3dc1d95a	0.09465285
156	0x3dfcbb17	0.12340372
157	0x3cfe4af6	0.031041604
158	0xbe1996c0	-0.14998913
159	0xbce88b1c	-0.028386645
160	0xbc9269fa	-0.0178728
161	0xbd2e711e	-0.042588346
162	0xbda744df	-0.08167433
163	0x3d9827c5	0.074294604
164	0x3d895bac	0.06706938
165	0x3cd58c51	0.026067885
166	0xbd4ccd5a	-0.050000526
167	0x3d5e3cec	0.05425732
168	0x3e0473c3	0.12934785
169	0x3c27087d	0.010194895
170	0x3e017a41	0.12644292
171	0xbd2fcce3	-0.042920005
172	0x3d1530cf	0.0364235
173	0x3d50b314	0.050952032
174	0x3c4a9c0a	0.012366304
175	0xbe098efd	-0.13433452
176	0xbdf0c656	-0.117565796
177	0xb85d2ca3	-5.2732077e-05
178	0xbe161959	-0.14658107
179	0x3d55f60b	0.052236598
180	0x3c8a1ff0	0.016860932
181	0x3d11409d	0.03546201
182	0xbe064777	-0.13113199
183	0x3dc10ccc	0.09426269
184	0x3ca6a920	0.020344317
185	0x3d7b026d	0.06128161
186	0xbbd48a1e	-0.0064861914
187	0xbd9ddc5d	-0.077080466
188	0xbd8c0eed	-0.06838784
189	0xb902e00d	-0.00012481232
190	0xbc80c1ef	-0.015717475
191	0xbcf6139e	-0.030038651
192	0x3d195de6	0.037443064
193	0xbada9483	-0.001667634
194	0x3d1a0b41	0.03760839
195	0x3cc64e42	0.024207238
196	0xbca9dff3	-0.02073667
197	0xbc94a104	-0.018143184
198	0x3d3bad39	0.045819495
199	0x3d859f13	0.065244816

model.6.weight f4 [1, 200]
0	0xbd42eee5	-0.04759111
1	0x3d0eaf7b	0.03483532
2	0xbcbf159d	-0.023325736
3	0xbc9a23b7	-0.018815858
4	0xbd45beda	-0.048277713
5	0x3e19a9ac	0.15006131
6	0x3d57970c	0.052634284
7	0x3d23b03d	0.039962996
8	0x3d3e7ab6	0.046503745
9	0x3c807383	0.01568008
10	0x3d4355e8	0.04768935
11	0x3d399a9b	0.04531346
12	0x3d948f2b	0.072538696
13	0xbd718a41	-0.05896974
14	0x3d36e009	0.04464725
15	0x3a7e283b	0.0009695326
16	0xba91752b	-0.0011097541
17	0x3d32b21a	0.043626882
18	0xbd063112	-0.03276164
19	0xbadfe6be	-0.0017082316
20	0xbc3f83da	-0.011689151
21	0x3d45c321	0.048281793
22	0x3d84e28f	0.06488525
23	0xbca3af05	-0.019980917
24	0x3d8ec3ef	0.06970965
25	0x3d960fff	0.0732727
26	0xbca807cd	-0.020511532
27	0x3da2dd73	0.07952394
28	0x3d81147b	0.063027345
29	0xbc84047c	-0.01611542
30	0x3d5cf357	0.053943004
31	0xbd2e1bde	-0.042507045
32	0x3e5c7afd	0.21531291
33	0xbc2bd817	-0.010488532
34	0xbc7e62d2	-0.01552649
35	0xbc11c2f4	-0.008896578
36	0x3d80a3b1	0.06281222
37	0x3c43fe9a	0.011962557
38	0xbc6b8bb9	-0.014376574
39	0x3b42d60e	0.0029729637
40	0xbd4eb96d	-0.050469805
41	0x3d16f562	0.03685511
42	0xbcbd1760	-0.023082435
43	0x3bd12719	0.0063828346
44	0x3ea51537	0.32242748
45	0x3d180e21	0.03712285
46	0x3dad87e4	0.08473185
47	0x3d83f908	0.06443983
48	0xbd40ad39	-0.047040198
49	0x3d90d655	0.070721306
50	0x3dca1d57	0.098688774
51	0x3e3c303b	0.18377773
52	0x3d3a52df	0.04548919
53	0xbc165318	-0.0091750845
54	0xbd778c2a	-0.060436405
55	0xbd407378	-0.04698512
56	0xbc8fe2ba	-0.017564166
57	0x3a5d25fa	0.000843614
58	0xbc43e9d8	-0.011957608
59	0x3d856e16	0.06515138
60	0x3d524c13	0.05134208
61	0xbcdc55a6	-0.02689631
62	0x3d83ed69	0.06441767
63	0x3da3e1c5	0.080020465
64	0x3d7aa1c0	0.061189413
65	0x3d371b52	0.04470379
66	0xbd03245b	-0.032017093
67	0xbc290bf9	-0.010317796
68	0x3c06f99e	0.008238224
69	0xbba76005	-0.005107882
70	0x3d1861ce	0.03720265
71	0xbc17d0a9	-0.009266057
72	0x3d718d8c	0.05897288
73	0xbd7c53a0	-0.06160319
74	0x3e87064b	0.2637199
75	0x3d4f0a46	0.050546907
76	0x3e290be2	0.16508439
77	0xbcd39abe	-0.025830623
78	0xbbed5805	-0.0072431588
79	0xbb995cef	-0.004680268
80	0x3d316ee0	0.04331863
81	0x3d9694ae	0.07352577
82	0xbcb8872a	-0.022525389
83	0xbc9c5b71	-0.019086571
84	0x3d1d98ec	0.038475916
85	0x3dfe22eb	0.12409004
86	0x3dad349f	0.08457302
87	0xbc268c68	-0.010165311
88	0x3d32b843	0.043632757
89	0x3d741564	0.059590712
90	0x3d20eb10	0.039286673
91	0x3e13de70	0.14440322
92	0xbcc6fe12	-0.024291072
93	0x3d24ed38	0.040265292
94	0x3d1ff035	0.03904744
95	0xbd35182e	-0.044212513
96	0x3d62fcf2	0.05541701
97	0x3dc0e7e0	0.09419227
98	0x3d86e5f2	0.06586827
99	0xbb3a03a3	-0.0028383515
100	0x3bb2f24a	0.005461012
101	0xbd74910d	-0.059708644
102	0x3e3865ae	0.18007538
103	0xbb71f3e4	-0.0036919052
104	0x3d3ba2af	0.045809444
105	0xbc80b1b3	-0.015709734
106	0x3d7374ed	0.05943768
107	0x3d5bdb14	0.053675726
108	0x3d0d5d4b	0.0345128
109	0xbd55410d	-0.05206399
110	0x3d995644	0.07487157
111	0xbd48349d	-0.0488783
112	0x3d4f718d	0.0506454
113	0x3e4d73b8	0.20063674
114	0x3b97a9ff	0.0046284194
115	0xbd0cd292	-0.034380503
116	0x3e2a08f4	0.16604978
117	0x3dc05004	0.09390262
118	0x3d8b5a05	0.06804279
119	0x3d23753a	0.039906718
120	0x3d2ca15b	0.042146068
121	0x3d222afa	0.039591767
122	0x3d448680	0.04797983
123	0xbc4cc636	-0.012498429
124	0x3d3cf193	0.04612882
125	0xbcb1cb93	-0.021703517
126	0xbc269a16	-0.010168573
127	0x3aeeb7b9	0.0018212713
128	0xbc043279	-0.008068674
129	0x3d5568fe	0.05210208
130	0x3d91ef7d	0.07125757
131	0x3e797d9c	0.24364322
132	0x3d8d34eb	0.06894859
133	0x3e07177d	0.13192554
134	0xbd31754f	-0.043324765
135	0x3d3fb938	0.046807498
136	0x3de691bd	0.11258266
137	0xbd01b4dc	-0.03166662
138	0x3d8d1290	0.06888306
139	0x3d257185	0.040391464
140	0x3de0c002	0.109741226
141	0xbd42d1de	-0.047563426
142	0xbd73b094	-0.05949457
143	0x3e170f59	0.14751948
144	0xba39678a	-0.00070726185
145	0x3b7343ee	0.0037119347
146	0x3d53a0da	0.051667072
147	0xbe005373	-0.12531833
148	0x3d88de75	0.06683055
149	0xbb7e2814	-0.0038781213
150	0xbcd73eee	-0.026275124
151	0x3e60a90a	0.21939483
152	0x3d3d15df	0.046163436
153	0x3b4e8ba1	0.003151633
154	0x3ccfb4f2	0.025354836
155	0x3da2b56b	0.07944759
156	0x3d5d7243	0.054064047
157	0xbc485204	-0.012226585
158	0x3e152a08	0.14566815
159	0xbd692f7d	-0.056930054
160	0x3c0128f4	0.007883299
161	0xbc11fc7d	-0.008910296
162	0x3df1a3ef	0.11798846
163	0x3d81cd0e	0.06337939
164	0x3d3eb7f0	0.046562135
165	0xbd0a43bb	-0.033756
166	0x3d847b92	0.06468882
167	0xbc49af80	-0.012309909
168	0x3d3dfc83	0.046383392
169	0xbc031e24	-0.008002792
170	0x3d7a7306	0.06114485
171	0xbd4cf0ac	-0.05003421
172	0x3d8ba32e	0.068182334
173	0xbcd24e29	-0.025672035
174	0xbd02e771	-0.031959
175	0x3e180f9f	0.14849709
176	0x3e3a29f0	0.1818006
177	0xbc17b847	-0.009260244
178	0x3e8dc151	0.2768655
179	0x3c2843de	0.010270087
180	0x3d67ff1f	0.056639787
181	0xbc6449a0	-0.013933569
182	0x3e3760f4	0.17908078
183	0x3d429ddc	0.047513828
184	0xbc565d29	-0.013083735
185	0x3d20cb1c	0.0392562
186	0x3b4b5cb3	0.0031030595
187	0xbc8054c8	-0.015665427
188	0xbcbb9513	-0.022898233
189	0xbd0be8f0	-0.034157693
190	0xbc3c0015	-0.011474629
191	0xbac6f665	-0.0015179632
192	0xbd654d5d	-0.055981982
193	0xbb4dad05	-0.0031383645
194	0xbd7f27f0	-0.062293947
195	0xbd0f027e	-0.034914486
196	0x3df91ac5	0.12163309
197	0xbc85e7b2	-0.016345832
198	0xbce6d026	-0.028175425
199	0x3d6370f5	0.055527646
