weights/200_200_mlp.pt (torch, 349104 bytes, 5 tensors)

model.0.weight f4 [200, 230]
0.016915184 0.089095436 -0.024383176 0.034659594 -0.01762415 0.08297421 0.04374058 -0.06795128
0.008266076 -0.03613765 0.018328186 -0.022027621 0.04890271 -0.07451303 -0.07207271 0.06504436
-0.02712874 0.013435302 0.044797763 -0.044097453 0.0012257478 -0.08770416 -0.010860055 0.041178286
0.0098523805 -0.07605619 0.035202302 -0.006918837 0.026864542 0.023199495 0.024248945 -0.038715698
-0.008051937 0.09005863 -0.010896572 0.041929845 -0.08123032 -0.022443065 0.009283944 0.05971062
-0.03816139 -0.06920337 0.057940125 0.010646481 0.038906746 0.003256529 0.002499285 0.047189835
0.07074557 0.0023857183 0.045536805 0.0147705525 0.042477604 -0.018941915 -0.025740094 0.030936074
-0.0049069123 0.017666131 -0.08899646 -0.0011995555 0.00978664 0.071749635 -0.06670302 -0.005956096
0.05220578 0.034893822 -0.004939219 -0.05415582 0.027567618 0.031194046 0.001383366 0.013099416
-0.009710053 -0.082769185 -0.04491043 -0.02569111 0.025109878 -0.02267375 0.08792201 0.032914057
-0.0026164013 -0.047876414 -0.005920026 -0.056567192 -0.002832189 -0.009620691 -0.020725958 -0.07895813
0.05839997 0.03898766 0.03534856 0.059136286 -0.010537139 -0.010440619 0.055232003 0.0153660355
-0.055470053 -0.12123691 -0.031270128 0.046338513 0.03393348 -0.06260525 -0.022316337 -0.04768585
0.02762504 -0.054929495 -0.0060894024 -0.10939035 0.037169218 -0.04499463 0.04219853 -0.034291014
-0.048649482 -0.018563956 -0.07248443 0.017416172 0.036983296 0.0249748 0.03013321 0.042184494
-0.03914773 -0.025434801 -0.03647699 0.056110315 0.06069932 -0.08340148 -0.07993903 0.011182253
-0.03284104 -0.023208462 -0.055120967 0.05591359 -0.07856986 -0.080924556 -0.002606295 0.054003187
0.07263189 -0.0125462385 -0.04993367 -0.032578792 -0.002926485 -0.104390725 0.02988564 0.043647967
-0.051988482 -0.04736597 0.04474691 -0.042090047 0.048104726 0.00696788 -0.038628943 0.05028258
0.049245592 -0.11963614 0.009617515 -0.028284961 -0.00064638007 -0.08238923 -0.016362833 0.05672963
-0.0055664675 0.007692112 -0.05998243 0.014451509 -0.0045513622 -0.03969189 -0.072377965 0.030819584
0.025239386 -0.04400283 -0.041621443 0.048316963 0.019524103 0.064445816 -0.031156331 0.029648332
-0.11305246 -0.04932783 0.008743061 0.031775676 0.049421612 -0.042631898 -0.034933306 -0.028301464
0.0044423267 -0.041945618 -0.047016136 -0.14317311 0.033266082 0.053117372 -0.020863164 0.032425974
-0.000274158 -0.031077845 0.025595948 0.06695428 -0.0511167 0.031414054 0.037107777 -0.06120252
-0.072250396 -0.026612157 0.0042427233 0.021814883 0.028658926 0.0020464563 0.0405965 -0.037881017
-0.014377229 0.008204949 0.038146295 -0.016276885 0.021040348 -0.00066488324 0.02707167 -0.036478687
0.018741148 -0.04644443 0.012313413 0.038640592 -0.08434509 -0.0070051304 0.06732565 -0.039257895
-5.854029e-05 0.023338405 -0.041392002 -0.043600697 -0.04072981 -0.068108246 -0.04978092 0.09921086
0.033254165 0.047135357 -0.065883085 -0.014412029 0.011328562 -0.015045715 0.018640246 -0.055375367
0.032846786 0.0072189 0.06910394 -0.08898582 -0.032640293 -0.012205007 0.011576394 -0.012466897
-0.066491075 -0.089091636 0.02468671 -0.031105647 -0.0788991 0.044741217 0.023575425 0.03663343
00000000: b691 8a3c ab77 b63d 3abf c7bc 38f7 0d3d
00000010: 8560 90bc 62ee a93d 5329 333d 0a2a 8bbd
00000020: 706e 073c 1305 14bd fe24 963c 4573 b4bc
00000030: 354e 483d 4a9a 98bd db9a 93bd fa35 853d
00000040: 173d debc be1f 5c3c dc7d 373d 889f 34bd
00000050: 45a9 a03a 3d9e b3bd 5fee 31bc 90aa 283d
00000060: e16b 213c 59c3 9bbd 4a30 103d 69b7 e2bb
00000070: 0713 dc3c de0c be3c b9a5 c63c 5a94 1ebd
00000080: 46ec 03bc a970 b83d 8987 32bc a1be 2b3d
00000090: 155c a6bd 85da b7bc af1b 183c 2093 743d
000000a0: 1e4f 1cbd 7fba 8dbd a052 6d3d 946e 2e3c
000000b0: ae5c 1f3d 7e6b 553b 0bcb 233b 214a 413d
000000c0: 0ee3 903d b659 1c3b cd84 3a3d 3000 723c
000000d0: fffc 2d3d 132c 9bbc e4dc d2bc a66d fd3c
000000e0: 2aca a0bb 90b8 903c c743 b6bd 673a 9dba
000000f0: 2558 203c 79f1 923d 989b 88bd 5b2b c3bb
00000100: bad5 553d d3ec 0e3d 2cd9 a1bb 7ed2 5dbd
00000110: 7cd5 e13c a88a ff3c 0f52 b53a ef9e 563c
00000120: ea16 1fbc e482 a9bd 00f4 37bd 2a76 d2bc
00000130: 3bb3 cd3c 4dbe b9bc 7410 b43d e4d0 063d
00000140: ee77 2bbb 0f1a 44bd c7fc c1bb 00b3 67bd
00000150: 3f9c 39bb 1aa0 1dbc 7cc9 a9bc cdb4 a1bd
00000160: cf34 6f3d 86b1 1f3d a7c9 103d e438 723d
00000170: f7a3 2cbc 210f 2bbc f43a 623d d3c1 7b3c
00000180: 9134 63bd 0f4b f8bd 1b15 00bd 74cd 3d3d
00000190: d5fd 0a3d 2e37 80bd c0d0 b6bc 3d52 43bd
000001a0: e84d e23c c0fd 60bd 9c89 c7bb 0c08 e0bd
000001b0: c03e 183d 4a4c 38bd 5ed8 2c3d bc74 0cbd
000001c0: ae44 47bd 7013 98bc b872 94bd 5cac 8e3c
000001d0: cc7b 173d f497 cc3c ecd9 f63c a6c9 2c3d
000001e0: 5f59 20bd a55c d0bc e568 15bd eed3 653d
000001f0: da9f 783d 65ce aabd 13b7 a3bd c535 373c
00000200: 5484 06bd ac1f bebc 86c6 61bd a605 653d
00000210: 3ce9 a0bd c6bb a5bd 60ce 2abb 7232 5d3d
00000220: 07c0 943d bd8e 4dbc 3f87 4cbd 5771 05bd
00000230: 45ca 3fbb ceca d5bd bbd2 f43c 36c8 323d
00000240: e0f1 54bd d202 42bd 8948 373d 9d66 2cbd
00000250: 7609 453d d052 e43b 6239 1ebd 1bf5 4d3d
00000260: bfb5 493d cb03 f5bd c892 1d3c ddb5 e7bc
00000270: d571 29ba afbb a8bd 590b 86bc 545d 683d
00000280: ea66 b6bb 1d0e fc3b 23b0 75bd 06c6 6c3c
00000290: 9823 95bb f793 22bd e63a 94bd 5a79 fc3c
000002a0: d4c2 ce3c 503c 34bd 3f7b 2abd 02e8 453d
000002b0: 03f1 9f3c 2bfc 833d 903b ffbc 0fe1 f23c
000002c0: 0c88 e7bd fb0b 4abd 0e3f 0f3c 3627 023d
000002d0: 516e 4a3d c99e 2ebd 3a16 0fbd 79d8 e7bc
000002e0: f090 913b 2bcf 2bbd fe93 40bd f99b 12be
000002f0: 0442 083d 9a91 593d 3ae9 aabc 19d1 043d
00000300: ddbc 8fb9 f796 febc 98ae d13c 531f 893d
00000310: bf5f 51bd 06ac 003d 53fe 173d 7eaf 7abd
00000320: 04f8 93bd bd01 dabc 8b06 8b3b 20b5 b23c
00000330: 20c6 ea3c d71d 063b 8448 263d 2029 1bbd
00000340: 788e 6bbc 0d6e 063c 4a3f 1c3d 1a57 85bc
00000350: cf5c ac3c 8f4b 2eba 68c5 dd3c ad6a 15bd
00000360: 0987 993c 843c 3ebd 33be 493c 9945 1e3d
00000370: 1ebd acbd 4b8b e5bb 08e2 893d e3cc 20bd
00000380: 2889 75b8 2f30 bf3c a98a 29bd a596 32bd
00000390: 4dd4 26bd 567c 8bbd 14e7 4bbd 102f cb3d
000003a0: 8535 083d 0111 413d b6ed 86bd 6e20 6cbc
000003b0: 6f9b 393c 4d82 76bc 6eb3 983c 48d1 62bd
000003c0: 5a8a 063d 868c ec3b 5e86 8d3d 333e b6bd
000003d0: d4b1 05bd 82f7 47bc eaaa 3d3c f541 4cbc
000003e0: 792c 88bd ad75 b6bd c93b ca3c 45d1 febc
000003f0: da95 a1bd 9142 373d 4021 c13c ef0c 163d

model.0.bias f4 [200]
-0.03641148 -0.05868064 -0.00850068 -0.03773555 -0.014781083 -0.0042121247 -0.0032968954 -0.031314243
-0.020440875 -0.045849014 0.029598095 0.008521148 -0.0016496948 -0.033927646 -0.015632145 -0.04580993
0.007650325 0.0073441677 -0.013714234 0.037184063 0.006510348 0.043534707 -0.04345489 -0.04254101
-0.040229347 0.008319779 -0.08838562 0.029329583 -0.042576898 0.013108987 -0.07926692 0.028989417
-0.047686316 -0.0806854 -0.057949346 0.04022021 -0.036800034 -0.0898712 -0.03647129 0.030790878
-0.020637166 -0.10243209 0.044471007 -0.085377775 -0.053465392 0.03886794 0.0005667207 -0.034546033
-0.05504998 -0.013451309 0.022573452 -0.009943941 -0.07007051 -0.025800066 0.02989351 -0.06820186
-0.033883277 -0.041160394 0.02792603 0.017543703 -0.0475757 -0.040006913 0.08089713 0.003037527
-0.011863405 -0.0127840685 0.008053756 -0.0043014507 0.04474942 0.028486054 -0.03437097 -0.04219849
0.026176026 0.050348386 -0.0133501375 -0.020787025 0.011678541 -0.079887964 0.038065 -0.037232608
-0.011278639 -0.053640988 -0.029109351 -0.010372839 -0.018243471 -0.013668402 -0.0037629674 0.08128426
-0.07537869 0.0101203555 -0.07462136 0.022665637 0.02452829 -0.053101517 0.015931545 -0.033574246
0.041167483 0.02551573 -0.034250934 -0.021372773 0.0020952795 -0.049770847 0.010603541 -0.028699301
-0.018749388 -0.051878504 0.030671539 -0.034417007 -0.028926069 -0.016717043 -0.04653932 0.022165025
-0.073105045 -0.021990571 0.022948837 -0.07444621 -0.072368324 0.029678738 -0.091346145 -0.00520002
0.006763302 0.037693493 -0.08111265 0.011087207 0.042587068 0.028649941 -0.03441036 0.004224938
-0.024801161 -0.01124148 -0.032983486 -0.013022605 -0.04496747 -0.022974748 0.013583739 -0.044112697
0.015742527 -0.03569189 0.06859041 -0.038489096 -0.07669424 -0.06440298 -0.05323224 0.0905752
-0.032151684 -0.02578775 -0.029096808 0.011594455 0.029472992 -0.07055666 -0.0038089603 -0.025633458
0.02301725 -0.083019584 0.038771596 0.029567743 -0.063608475 0.0030850414 0.020685416 -0.009930093
-0.08203943 -0.05461464 -0.06929904 -0.0035974314 -0.03177869 -0.07175012 0.051152013 -0.019107047
-0.044772033 0.009176202 -0.06989919 -0.0070391786 0.0012924569 -0.0032225756 -0.007121788 -0.077647485
-0.077815674 -0.005084316 -0.01665608 -0.060332313 0.09363877 -0.05801822 0.04114574 -0.057735633
-0.023721334 -0.06689506 -0.07169846 -0.07770914 0.009182327 -0.016370289 -0.027721519 -0.0512403
-0.08547252 0.017213978 -0.03678516 -0.024603965 -0.047048308 -0.07963911 -0.068623886 0.0019575218
00000000: 3424 15bd 1c5b 70bd 7046 0bbc 9890 1abd
00000010: 5b2c 72bc dd05 8abb ba10 58bb 5d43 00bd
00000020: 9f73 a7bc 2dcc 3bbd b477 f23c 499c 0b3c
00000030: 923a d8ba b7f7 0abd fc0e 80bc 31a3 3bbd
00000040: 94af fa3b 58a7 f03b abb1 60bc 514e 183d
00000050: c254 d53b 7351 323d c1fd 31bd 7b3f 2ebd
00000060: 87c7 24bd af4f 083c 8503 b5bd 9844 f03c
00000070: 1d65 2ebd 14c7 563c b256 a2bd 377b ed3c
00000080: ba52 43bd 633e a5bd 4b5c 6dbd f2bd 243d
00000090: a2bb 16bd 640e b8bd eb62 15bd 273d fc3c
000000a0: 460f a9bc eac7 d1bd 3b27 363d 8bda aebd
000000b0: 87fe 5abd fd33 1f3d fb8f 143a 2480 0dbd
000000c0: 167c 61bd e162 5cbc f6eb b83c e9eb 22bc
000000d0: 2181 8fbd a95a d3bc 3ce3 f43c 6bad 8bbd
000000e0: 31c9 0abd cd97 28bd 21c5 e43c d0b7 8f3c
000000f0: bdde 42bd 4ade 23bd 65ad a53d 3f11 473b
00000100: ba5e 42bc 4574 51bc e7f3 033c 2ff3 8cbb
00000110: 2b4b 373d 965b e93c 93c8 0cbd 53d8 2cbd
00000120: 1b6f d63c 1c3a 4e3d 89ba 5abc 8d49 aabc
00000130: 5a57 3f3c 4d9c a3bd 0cea 1b3d 3881 18bd
00000140: 0aca 38bc a7b6 5bbd bc76 eebc d7f2 29bc
00000150: 5573 95bc 6ff1 5fbc 1e9c 76bb 5d78 a63d
00000160: 2560 9abd d9cf 253c 15d3 98bd 49ad b93c
00000170: 8def c83c fa80 59bd df82 823c 2685 09bd
00000180: 3c9f 283d 5d06 d13c b54a 0cbd f415 afbc
00000190: f550 093b 84dc 4bbd 79ba 2d3c cc1a ebbc
000001a0: 5198 99bc 8e7e 54bd e142 fb3c d9f8 0cbd
000001b0: 5df6 ecbc 2ef2 88bc 04a0 3ebd 6d93 b53c
000001c0: 19b8 95bd 9225 b4bc 33ff bb3c 4177 98bd
000001d0: d835 94bd d320 f33c b013 bbbd ee64 aabb
000001e0: b09e dd3b 7e64 1a3d 641e a6bd 1ea7 353c
000001f0: c76f 2e3d 48b3 ea3c e1f1 0cbd 5971 8a3b
00000200: ce2b cbbc 2f2e 38bc b119 07bd c45c 55bc
00000210: cf2f 38bd 8a35 bcbc 558e 5e3c 84af 34bd
00000220: 79f6 803c a931 12bd 2179 8c3d bea6 1dbd
00000230: df11 9dbd b6e5 83bd 0d0a 5abd 7e7f b93d
00000240: 7cb1 03bd d540 d3bc 6e5c eebc abf6 3d3c
00000250: 5871 f13c 0380 90bd c09f 79bb 42fd d1bc
00000260: ac8e bc3c 2c06 aabd f7ce 1e3d 0d38 f23c
00000270: 2945 82bd 682e 4a3b 7674 a93c d4b1 22bc
00000280: 4a04 a8bd 9ab3 5fbd a8ec 8dbd e2c2 6bbb
00000290: 5f2a 02bd baf1 92bd c684 513d 6286 9cbc
000002a0: e162 37bd c857 163c 4e27 8fbd e9a8 e6bb
000002b0: a867 a93a d931 53bb e35d e9bb a505 9fbd
000002c0: d35d 9fbd 559a a6bb 5572 88bc 041f 77bd
000002d0: afc5 bf3d 83a4 6dbd 6f88 283d 337c 6cbd
000002e0: 3e53 c2bc 4700 89bd a4d6 92bd f825 9fbd
000002f0: 7971 163c fc1a 86bc 3d18 e3bc 59e1 51bd
00000300: 370c afbd 5404 8d3c 09ac 16bd 418e c9bc
00000310: bab5 40bd d419 a3bd ae8a 8cbd c449 003b

model.3.weight f4 [200, 200]
-0.07847712 -0.006299697 0.02756591 0.0004834793 -0.02185964 0.034365747 0.03647309 -0.028135708
0.0021695327 -0.046692282 -0.037205208 -0.028361272 -0.07750485 -0.07476628 0.05337664 -0.0731794
-0.055381563 -0.048167735 -0.0672814 0.0019879641 0.013993254 0.05894993 0.033653826 -0.028420206
-0.068957895 0.051357776 -0.0010987689 0.038651172 -0.035988446 0.051595557 0.035604835 0.032979764
-0.035157323 -0.016882952 0.039362304 -0.045729987 -0.008344344 0.017291369 -0.0442535 0.047517024
-0.06880136 -0.05278305 -0.026729628 -0.03982269 0.044176776 0.0023960436 -0.080156736 0.04281398
-0.069441944 -0.018856475 -0.028912192 0.041765027 0.033804063 -0.041813254 -0.06582268 0.024333809
-0.07748319 -0.029821077 -0.066067755 0.010981476 -0.001319905 -0.057182148 -0.07651487 0.036447894
-0.031449713 -0.06978225 0.050186474 0.029248148 -0.044949338 0.050147254 0.022541752 -0.07271997
-0.0688565 -0.0536129 0.047130156 -0.0064055263 0.029274568 -0.0101880515 -0.03660479 -0.063639425
-0.060651682 -0.012620212 -0.035438027 0.057157297 0.023542618 -0.020140324 0.03883444 0.045382895
-0.00915766 -0.04835487 0.053708363 -0.023810856 -0.0018274528 0.053400654 0.023073977 0.03295432
0.0070391 0.025769798 0.045316517 0.034653015 -0.0067007737 0.04380657 0.05035644 0.020689258
-0.030161006 0.052457903 0.043351643 0.0017748837 0.044664107 -0.029560113 0.050787263 0.04402777
-0.080381 0.029970989 -0.034686264 -0.0094944695 0.024223654 0.048252404 0.039084304 -0.05536588
0.012938587 0.0066811796 -0.052499354 -0.03335186 0.0034199643 -0.054938998 0.009769282 0.0055424655
-0.03282607 0.018883362 -0.042653847 -0.0100245755 0.034517813 -0.05259511 -0.00514852 -0.06642025
0.04158054 0.019435402 -0.03462717 -0.068614684 0.0545282 0.0141299395 -0.056451794 -0.033586614
0.037818935 -0.036842283 -0.026017241 -0.07318997 -0.07809287 0.026105886 -0.030542491 -0.04514966
-0.02223548 -0.0024723955 -0.00427491 -0.06903156 0.047918692 0.007942464 0.015860694 -0.025724743
-0.0015551216 0.04945523 -0.06459184 7.3936084e-05 -0.063322134 -0.057224747 -0.0063493443 -0.04305196
-0.062284593 -0.02510791 -0.03179773 -0.039581068 0.036801558 -0.020722894 -0.011823324 -0.05293733
-0.06605307 0.027135594 -0.035625808 0.04621662 -0.03511644 -0.033085182 -0.071163416 0.010607028
-0.004803194 -0.059196256 -0.013856256 -0.018658279 -0.07861908 0.02876765 0.01678193 0.05850206
-0.013817009 0.053055163 -0.058902018 -0.03094467 -0.055911563 0.04112975 0.008603102 -0.067680255
-0.04903427 0.028993322 0.026683353 0.04506211 -0.015540758 0.0038842072 0.044891857 -0.076763004
-0.0054874714 0.04756608 -0.023299672 -0.0131663 -0.019288003 -0.06630207 0.042273328 0.005374055
0.02708767 0.011284633 -0.075411126 0.048638456 -0.0014826598 -0.04332152 0.038819123 0.008807865
-0.048917804 -0.080659166 0.029980112 0.008879165 -0.071317084 0.037238024 0.024177426 0.046072587
0.008792637 0.027396005 -0.045321994 -0.014989416 0.005106777 -0.023112642 -0.05786731 -0.0024440307
-0.008177884 -0.029821718 -0.03671172 -0.055693906 0.006010784 0.0061246934 -0.013676835 -0.047699165
-0.05474948 -0.05768912 0.009014336 -0.024025092 -0.0018776172 -0.07812325 -0.04560228 0.04598371
00000000: 9db8 a0bd b06d cebb e7d1 e13c 7e7b fd39
00000010: fd12 b3bc 19c3 0c3d cf64 153d db7c e6bc
00000020: b82e 0e3b 6840 3fbd 7d64 18bd e655 e8bc
00000030: ddba 9ebd 101f 99bd 77a1 5a3d 15df 95bd
00000040: c7d7 62bd 884b 45bd d5ca 89bd 8148 023b
00000050: f643 653c 7b75 713d 98d8 093d 7ed1 e8bc
00000060: cc39 8dbd 885c 523d 9104 90ba b150 1e3d
00000070: 9f68 13bd dd55 533d 60d6 113d ca15 073d
00000080: 2001 10bd 1e4e 8abc 5e3a 213d 5e4f 3bbd
00000090: b7b6 08bc a1a6 8d3c 2843 35bd 36a1 423d
000000a0: bae7 8cbd 0a33 58bd 18f8 dabc 1e1d 23bd
000000b0: b5f2 343d f106 1d3b 3729 a4bd b65d 2f3d
000000c0: 9437 8ebd e578 9abc 43d9 ecbc ce11 2b3d
000000d0: 2176 0a3d 6044 2bbd 0bce 86bd b257 c73c
000000e0: 82af 9ebd 554b f4bc 884e 87bd a6eb 333c
000000f0: aa00 adba d437 6abd d4b3 9cbd 634a 153d
00000100: 6ad1 00bd ffe9 8ebd 5590 4d3d d099 ef3c
00000110: cc1c 38bd 3567 4d3d 7ba9 b83c 35ee 94bd
00000120: a304 8dbd 3399 5bbd 8d0b 413d 73e5 d1bb
00000130: 38d1 ef3c c9eb 26bc e7ee 15bd 6355 82bd
00000140: e66d 78bd 01c5 4ebc 7727 11bd c51d 6a3d
00000150: 73dc c03c 52fd a4bc dd10 1f3d 6ae3 393d
00000160: 030a 16bc c20f 46bd 4dfd 5b3d fc0e c3bc
00000170: 2487 efba a5ba 5a3d a305 bd3c 1cfb 063d
00000180: 40a8 e63b 2f1b d33c d09d 393d 52f0 0d3d
00000190: 2a92 dbbb 856e 333d 8e42 4e3d 857c a93c
000001a0: 3714 f7bc 19de 563d 7e91 313d 37a3 e83a
000001b0: b6f1 363d 0d28 f2bc 4e06 503d 7756 343d
000001c0: cb9e a4bd b885 f53c 2f13 0ebd b18e 1bbc
000001d0: af70 c63c 50a4 453d dd16 203d 55c7 62bd
000001e0: 5efc 533c cced da3b 9009 57bd f69b 08bd
000001f0: 7b21 603b b707 61bd 570f 203c 929d b53b
00000200: a174 06bd 48b1 9a3c cdb5 2ebd 1e3e 24bc
00000210: 8d62 0d3d f86d 57bd ebb4 a8bb 5707 88bd
00000220: 5b50 2a3d fe36 9f3c 38d5 0dbd db85 8cbd
00000230: f658 5f3d 4381 673c ff39 67bd 1e92 09bd
00000240: 07e8 1a3d efe7 16bd 1c22 d5bc 9fe4 95bd
00000250: 28ef 9fbd 03dc d53c 3f34 fabc daee 38bd
00000260: 2e27 b6bc ea07 22bb 8b14 8cbb 6b60 8dbd
00000270: 6446 443d 1c21 023c 49ee 813c b2bc d2bc
00000280: 39d5 cbba 9191 4a3d ba48 84bd 220e 9b38
00000290: 09af 81bd 7f64 6abd 290e d0bb 4157 30bd
000002a0: 211e 7fbd 1baf cdbc 563e 02bd c21f 22bd
000002b0: 3bbd 163d 0fc3 a9bc 9db6 41bc d0d4 58bd
000002c0: d546 87bd 774b de3c 5eec 11bd a34d 3d3d
000002d0: 42d6 0fbd 5484 07bd 20be 91bd 1ac9 2d3c
000002e0: 1d64 9dbb c677 72bd 5a05 63bc 3fd9 98bc
000002f0: 0a03 a1bd 22aa eb3c 427a 893c db9f 6f3d
00000300: bc60 62bc 5f50 593d 3e43 71bd ad7f fdbc
00000310: 8603 65bd ab77 283d 06f4 0c3c f29b 8abd
00000320: 29d8 48bd 6783 ed3c 0c97 da3c 0c93 383d
00000330: aa9e 7ebc 2f8e 7e3b 86e0 373d ec35 9dbd
00000340: 3fd0 b3bb a6d4 423d f4de bebc 77b7 57bc
00000350: e001 9ebc 61c9 87bd cc26 2d3d d718 b03b
00000360: f6e6 dd3c 2ee3 383c 2671 9abd 1e39 473d
00000370: cf55 c2ba e871 31bd cd00 1f3d dd4e 103c
00000380: 095e 48bd a230 a5bd da98 f53c eb79 113c
00000390: b10e 92bd e686 183d bd0f c63c 9cb6 3c3d
000003a0: fe0e 103c 966d e03c 8ea3 39bd 2b96 75bc
000003b0: c056 a73b b956 bdbc 4606 6dbd 082c 20bb
000003c0: 88fc 05bc ad4c f4bc 075f 16bd 4b1f 64bd
000003d0: 1cf6 c43b a7b1 c83b ce14 60bc 3360 43bd
000003e0: fe40 60bd 6d4b 6cbd deb0 133c 45d0 c4bc
000003f0: 611a f6ba 15ff 9fbd 75c9 3abd 6a59 3c3d

model.3.bias f4 [200]
0.039445743 0.019459322 -0.0045783655 0.10036629 0.19168806 -0.12065819 0.3383012 0.002197879
0.17892012 -0.047916852 0.14477009 -0.045839828 -0.04112646 0.12661159 -0.056741115 -0.11808587
0.12131268 0.09085201 -0.0013310991 -0.051686812 -0.093331546 0.089748666 -0.10789125 0.009760796
0.068164274 0.03990913 -0.106513985 0.044043373 0.10500202 -0.14384016 0.007868186 -0.010273892
-0.068986 -0.04886682 0.080142185 -0.039507147 0.017602768 0.050670624 -0.02611391 0.14759454
0.03529236 0.05438568 -0.03996009 0.052745998 0.016555576 -0.065575 0.034885168 0.028606169
0.042020667 0.11762053 0.08022979 0.055768713 -0.04787114 0.03945122 0.048395406 0.112365514
0.09226806 0.15783992 0.10095694 0.07015072 -0.06919714 0.1396133 0.018431708 -0.026586968
0.1769172 -0.0506846 0.07972467 -0.012212243 -0.075955085 -0.028774368 -0.024616713 0.31931046
-0.041732814 0.027065927 -0.031098519 -0.16590525 -0.04041452 0.04059876 -0.062766775 -0.03613577
0.053133134 0.02425717 0.16015516 0.051421866 0.0071923872 0.14458205 -0.0101394495 0.15103585
-0.065831296 -0.036279794 0.14104258 -0.0803419 -0.0076973266 -0.07865759 0.13129686 -0.075261086
-0.080794886 -0.063493386 -0.029309781 0.05429027 0.117376514 -0.14432196 -0.022097198 -0.18777797
0.004605061 0.11655726 -0.020829488 0.1074239 0.14324498 -0.000822552 -0.03965044 0.05745932
-0.027130442 -0.07459394 0.26510936 0.05886412 0.034402326 -0.0019390285 -0.049338043 0.0065833363
-0.01703452 0.1027105 0.15882014 0.057086177 -0.026456956 0.08968957 -0.052580815 0.05654193
-0.078707635 0.12726445 0.051650416 0.11434321 -0.0006482521 0.1190824 0.01069237 0.14235969
0.02025804 -0.02287572 0.15082704 0.11054504 0.07135912 0.033448435 -0.03552382 -0.04767643
-0.12392652 0.0040788115 -0.020395415 -0.05194127 0.06251462 -0.05744623 -0.000499591 0.057760853
0.06352895 -0.16777854 -0.10282737 0.111503415 0.0511901 0.16219495 -0.14245 -0.065888084
0.17853056 -0.07359826 0.08293188 -0.06346618 -0.024582118 0.038778223 0.009424456 -0.076469585
0.07977319 -0.029860808 0.19063738 0.0052574384 0.08600929 0.014229232 0.17786703 -0.052263644
-0.052456155 0.10124546 -0.08564188 0.14351778 -0.046581123 0.108841814 0.01756997 -0.0035532652
-0.0121825505 -0.19127029 0.09513728 -0.07298297 -0.0101812985 0.06102003 -0.14612137 0.1537447
0.15367906 -0.079623476 -0.14196616 0.081514075 0.16127147 0.04688567 -0.044137124 0.16912265
00000000: dc91 213d 2869 9f3c 1d06 96bb d78c cd3d
00000010: e049 443e a41b f7bd d135 ad3e 4a0a 103b
00000020: d636 373e 7644 44bd 9c3e 143e 8bc2 3bbd
00000030: 3874 28bd 78a6 013e 5f69 68bd 01d7 f1bd
00000040: c872 f83d 9e10 ba3d 4678 aeba 8db5 53bd
00000050: 9c24 bfbd 26ce b73d 16f6 dcbd bfeb 1f3c
00000060: b699 8b3d c277 233d 0124 dabd d366 343d
00000070: 4d0b d73d d64a 13be 90e9 003c d453 28bc
00000080: 8848 8dbd 9328 48bd 9621 a43d 3fd2 21bd
00000090: ae33 903c 008c 4f3d d7ec d5bc 0623 173e
000000a0: b98e 103d 85c3 5e3d 31ad 23bd 300c 583d
000000b0: 8f9f 873c 304c 86bd c0e3 0e3d 7c57 ea3c
000000c0: dd1d 2c3d 08e3 f03d 844f a43d bc6d 643d
000000d0: 8714 44bd 9a97 213d 433a 463d e41f e63d
000000e0: 09f7 bc3d caa0 213e 83c2 ce3d 2eab 8f3d
000000f0: 3bb7 8dbd caf6 0e3e 18fe 963c eacc d9bc
00000100: c829 353e a89a 4fbd b046 a33d dc15 48bc
00000110: 578e 9bbd 39b8 ebbc fda8 c9bc a97c a33e
00000120: 07f0 2abd 5db9 dd3c 52c2 febc 11e3 29be
00000130: b289 25bd e34a 263d de8b 80bd 1a03 14bd
00000140: 21a2 593d f9b6 c63c b7ff 233e bc9f 523d
00000150: 1eae eb3b 510d 143e ef1f 26bc 24a9 1a3e
00000160: 8fd2 86bd 1f9a 14bd 776d 103e 4b8a a4bd
00000170: db39 fcbb 3b17 a1bd af72 063e 7c22 9abd
00000180: ca77 a5bd d208 82bd 111b f0bc 795f 5e3d
00000190: 1963 f03d 23c9 13be 2f05 b5bc de48 40be
000001a0: 0de6 963b 93b5 ee3d 9aa2 aabc 1001 dc3d
000001b0: d0ae 123e 88a0 57ba 8068 22bd 775a 6b3d
000001c0: a940 debc b5c4 98bd 6abc 873e 811b 713d
000001d0: 74e9 0c3d 0027 feba b016 4abd 07b9 d73b
000001e0: fa8b 8bbc e259 d23d bfa1 223e 32d3 693d
000001f0: 42bc d8bc 2aaf b73d fb5e 57bd 8398 673d
00000200: 7831 a1bd 9d51 023e 638f 533d c62c ea3d
00000210: 76ef 29ba 79e1 f33d 0d2f 2f3c bdc6 113e
00000220: 30f4 a53c dd65 bbbc 6772 1a3e 7065 e23d
00000230: bb24 923d 3a01 093d 6d81 11bd 5c48 43bd
00000240: 30cd fdbd 8da7 853b 4914 a7bc 5ec0 54bd
00000250: aa07 803d bd4c 6bbd fcf6 02ba a596 6c3d
00000260: 771b 823d 23ce 2bbe 2897 d2bd e75b e43d
00000270: b6ac 513d 6f16 263e 6ade 11be 55f0 86bd
00000280: b7d0 363e afba 96bd 31d8 a93d 8efa 81bd
00000290: 7060 c9bc ead5 1e3d 0969 1a3c 169c 9cbd
000002a0: 2060 a33d a79e f4bc 7236 433e 9746 ac3b
000002b0: a325 b03d ba21 693c c622 363e 6712 56bd
000002c0: 44dc 56bd c859 cf3d 0365 afbd 53f6 123e
000002d0: d9cb 3ebd 75e8 de3d e6ee 8f3c e6dd 68bb
000002e0: 5299 47bc 5cdc 43be 56d7 c23d 1878 95bd
000002f0: 76cf 26bc 24f0 793d d7a0 15be 406f 1d3e
00000300: 0b5e 1d3e a211 a3bd 945f 11be daf0 a63d
00000310: 5924 253e 300b 403d 21c9 34bd 7d2e 2d3e

model.6.weight f4 [1, 200]
-0.010432458 -0.008043466 -0.013829688 0.058031134 0.048702296 0.14752172 0.27018684 -0.012724596
0.044576995 0.09782126 0.035109222 -0.059348214 -0.01838549 0.05064623 0.0043618376 0.1396056
0.07004357 0.049224246 0.10834315 -0.011489787 0.10378158 0.04006191 0.09790292 -0.029595219
0.052235123 -0.04217756 -0.021797314 0.018801 0.05999333 0.18391612 -0.0434564 -0.04885331
-2.4726582e-05 -0.0031188864 0.041415364 0.0048283585 -0.0036930903 -0.022804385 0.0057176864 0.061532952
-0.019123288 0.05008079 0.16117766 -0.027602877 -0.04034173 -0.03578296 -0.0030524973 -0.030248083
0.06569247 0.039426662 0.0019647733 -0.0390747 -0.014087465 -0.045417976 0.03037097 0.064816736
0.04937516 0.07360475 0.036443006 0.046398286 0.19667974 0.046993095 -0.017093953 -0.033527624
0.09765172 0.040868454 0.049824495 -0.05181439 -0.0015566238 0.1533377 -0.013353469 0.20778175
0.13624959 -0.014723034 -0.050385043 0.12009727 -0.039146554 0.039784934 -0.00017328431 0.06264932
0.05056537 0.058138438 0.088431224 -0.0514779 -0.024618912 0.032049708 -0.14901158 0.05592186
-0.016295288 -0.058554992 0.056871645 0.0012723294 -0.03345746 0.04858578 0.07390254 -0.027289798
0.097541206 -0.03829091 -0.04680781 0.04363367 0.053825796 0.22051583 0.10325446 0.21887891
-0.028176619 0.07310645 -0.059565037 0.05052251 0.053817704 -0.046045788 0.0023691545 0.036522176
-0.0024800082 -0.05137453 0.19886073 0.04201974 0.04499463 -0.050288122 -0.056945626 -0.004704829
0.00577281 0.06779097 0.034189228 0.07280735 -0.031080894 0.0521528 -0.0040276255 -0.0067361444
0.06962063 0.055081345 -0.040881798 0.063081525 -0.034164153 0.05422233 -0.026415376 0.061386965
-0.048749674 -0.033506013 0.07387634 0.06714623 0.04491113 -0.020131292 -0.031808592 0.042317476
0.094398916 0.03130954 -0.034580715 -0.0147489635 0.013144213 0.00021798832 -0.05309983 0.061479095
0.050570127 0.17320557 0.20111564 0.045494817 0.029104505 0.04001768 0.23703395 -0.049932573
0.046485014 0.17745098 0.05323967 -0.01609976 -0.00578962 -0.06252048 -0.050808415 -0.031170622
0.04349742 -0.0045934548 0.032334313 -0.033442117 0.04272205 -0.027493665 0.03734414 -0.005971636
-0.01632631 0.047796942 0.12386101 0.05742836 -0.0065024877 0.036383998 0.06291255 0.016224857
0.1302264 0.23705879 0.046339158 0.14295356 0.22254826 0.04026892 0.12906754 0.05821974
0.055367295 -0.020546291 0.15767992 0.052535526 0.03927541 -0.0040452327 -0.006502401 0.059260387
00000000: e6ec 2abc bec8 03bc ea95 62bc 0eb2 6d3d
00000010: 0f7c 473d ef0f 173e ee55 8a3e d37a 50bc
00000020: 5e96 363d 8356 c83d b0ce 0f3d 1d17 73bd
00000030: 2b9d 96bc 6c72 4f3d bfed 8e3b c5f4 0e3e
00000040: 0173 8f3d 5d9f 493d 03e3 dd3d a93f 3cbc
00000050: 708b d43d f517 243d 5381 c83d ac71 f2bc
00000060: 7ff4 553d 61c2 2cbd 4890 b2bc 8e04 9a3c
00000070: 91bb 753d 8254 3c3e 57ff 31bd 691a 48bd
00000080: ee6b cfb7 3b66 4cbb 28a3 293d 3537 9e3b
00000090: c607 72bb 43d0 babc 6e5b bb3b fa09 7c3d
000000a0: 71a8 9cbc 8421 4d3d c20b 253e 6e1f e2bc
000000b0: 5f3d 25bd 2791 12bd 680c 48bb d4ca f7bc
000000c0: c689 863d da7d 213d 6dc3 003b cb0c 20bd
000000d0: 1ccf 66bc 3308 3abd 8acc f83c a3be 843d
000000e0: 9c3d 4a3d 16be 963d 4345 153d 210c 3e3d
000000f0: 6a66 493e d57b 403d 9e08 8cbc 4354 09bd
00000100: a0fd c73d ae65 273d c514 4c3d 533b 54bd
00000110: a107 ccba 8f04 1d3e 82c8 5abc bdc4 543e
00000120: 0385 0b3e e138 71bc 8c60 4ebd 8ff5 f53d
00000130: 2358 20bd 87f5 223d a7b3 35b9 494e 803d
00000140: a21d 4f3d 9222 6e3d 6e1b b53d 7eda 52bd
00000150: 9aad c9bc 8e46 033d 7e96 18be 520e 653d
00000160: b27d 85bc 5cd7 6fbd 3ef2 683d 4ac4 a63a
00000170: b10a 09bd e201 473d 375a 973d db8e dfbc
00000180: afc3 c73d eed6 1cbd 8cb9 3fbd 38b9 323d
00000190: 7078 5c3d e7ce 613e 1377 d33d cb21 603e
000001a0: a7d2 e6bc d6b8 953d 78fa 73bd b1f0 4e3d
000001b0: f46f 5c3d 829a 3cbd d143 1b3b 4798 153d
000001c0: a287 22bb 196e 52bd 26a2 4b3e e41c 2c3d
000001d0: 4a4c 383d ebfa 4dbd d13f 69bd f72a 9abb
000001e0: d729 bd3b fed5 8a3d 010a 0c3d 051c 953d
000001f0: 5c9d febc 2d9e 553d 2cfa 83bb e0ba dcbb
00000200: 4395 8e3d fa9c 613d ac73 27bd e330 813d
00000210: b6ef 0bbd 3c18 5e3d 0f65 d8bc e670 7b3d
00000220: bdad 47bd 9a3d 09bd 7b4c 973d f683 893d
00000230: bcf4 373d 61ea a4bc ba49 02bd 1755 2d3d
00000240: 3854 c13d 6f3e 003d 82a4 0dbd a3a5 71bc
00000250: d35a 573c cb93 6439 357f 59bd 81d1 7b3d
00000260: 9f22 4f3d cd5c 313e 42f1 4d3e c658 3a3d
00000270: 926c ee3c 94e9 233d 07b9 723e 1986 4cbd
00000280: 1267 3e3d b6b5 353e d711 5a3d a5e3 83bc
00000290: dab6 bdbb bd0a 80bd 7c1c 50bd 8859 ffbc
000002a0: 5a2a 323d b184 96bb fc70 043d 9afa 08bd
000002b0: 51fd 2e3d 653a e1bc 2bf6 183d b7ad c3bb
000002c0: c1be 85bc bac6 433d d7aa fd3d 003a 6b3d
000002d0: d212 d5bb 6307 153d 4cd8 803d fee9 843c
000002e0: 125a 053e 8abf 723e 21ce 3d3d 6b62 123e
000002f0: b1e3 633e 06f1 243d 482a 043e d277 6e3d
00000300: d1c8 623d b250 a8bc d876 213e 7e2f 573d
00000310: 41df 203d df8d 84bb 1812 d5bb 05bb 723d
